…
 issue on GitHub for any issues related to this experimental feature.
  param = torch.load(path, map_location=device)
2026-06-02 05:17:18.007 | INFO     | utils.train:__init__:107 - 
Building Net...
C:\Users\王正宏\.pyenv\pyenv-win\versions\3.11.9\Lib\site-packages\torch\nn\modules\rnn.py:123: UserWarning: dropout option adds dropout after all but last recurrent layer, so non-zero dropout expects num_layers greater than 1, but got dropout=0.3 and num_layers=1
  warnings.warn(
2026-06-02 05:17:18.068 | INFO     | utils.train:__init__:111 - Net(
  (cnn): DdddOcr(
    (cnn): Sequential(
      (conv0): Conv2d(1, 16, kernel_size=(3, 3), stride=(1, 1), padding=(1, 1))
      (relu0): ReLU(inplace=True)
      (pooling0): MaxPool2d(kernel_size=2, stride=2, padding=0, dilation=1, ceil_mode=False)
      (conv1): Conv2d(16, 32, kernel_size=(3, 3), stride=(1, 1), padding=(1, 1))
      (relu1): ReLU(inplace=True)
      (pooling1): MaxPool2d(kernel_size=2, stride=2, padding=0, dilation=1, ceil_mode=False)
      (conv2): Conv2d(32, 32, kernel_size=(3, 3), stride=(1, 1), padding=(1, 1))
      (batchnorm2): BatchNorm2d(32, eps=1e-05, momentum=0.1, affine=True, track_running_stats=True)
      (relu2): ReLU(inplace=True)
      (conv3): Conv2d(32, 32, kernel_size=(3, 3), stride=(1, 1), padding=(1, 1))
      (relu3): ReLU(inplace=True)
      (pooling2): MaxPool2d(kernel_size=(2, 2), stride=(2, 1), padding=(0, 1), dilation=1, ceil_mode=False)
      (conv4): Conv2d(32, 64, kernel_size=(3, 3), stride=(1, 1), padding=(1, 1))
      (batchnorm4): BatchNorm2d(64, eps=1e-05, momentum=0.1, affine=True, track_running_stats=True)
      (relu4): ReLU(inplace=True)
      (conv5): Conv2d(64, 64, kernel_size=(3, 3), stride=(1, 1), padding=(1, 1))
      (relu5): ReLU(inplace=True)
      (pooling3): MaxPool2d(kernel_size=(2, 2), stride=(2, 1), padding=(0, 1), dilation=1, ceil_mode=False)
      (conv6): Conv2d(64, 16, kernel_size=(2, 2), stride=(1, 1))
      (batchnorm6): BatchNorm2d(16, eps=1e-05, momentum=0.1, affine=True, track_running_stats=True)
      (relu6): ReLU(inplace=True)
    )
  )
  (lstm): LSTM(48, 48, dropout=0.3, bidirectional=True)
  (loss): CTCLoss()
  (fc): Linear(in_features=96, out_features=33, bias=True)
)
2026-06-02 05:17:18.068 | INFO     | utils.train:__init__:112 - 
Building End
+---------------------------+------------+
|          Modules          | Parameters |
+---------------------------+------------+
|    cnn.cnn.conv0.weight   |    144     |
|     cnn.cnn.conv0.bias    |     16     |
|    cnn.cnn.conv1.weight   |    4608    |
|     cnn.cnn.conv1.bias    |     32     |
…
